…
Getting Input Data for adak,alaska-040a-usa-uhslc


Getting Input Data for princerupert,canada-princerupert,canada-glossdm-bodc


Getting Input Data for seward-9455090-usa-noaa


Getting Input Data for sitka,ak-559a-usa-uhslc


Getting Input Data for sand_point,ak-574a-usa-uhslc


Getting Input Data for yakutat,ak-570a-usa-uhslc





 Station No Data List: []



Model: "sequential"
_________________________________________________________________
 Layer (type)                Output Shape              Param #   
=================================================================
 dense (Dense)               (None, 100)               12700     
                                                                 
 dense_1 (Dense)             (None, 100)               10100     
                                                                 
 dense_2 (Dense)             (None, 100)               10100     
                                                                 
 dense_3 (Dense)             (None, 100)               10100     
                                                                 
 dense_4 (Dense)             (None, 100)               10100     
                                                                 
 dense_5 (Dense)             (None, 100)               10100     
                                                                 
 dropout (Dropout)           (None, 100)               0         
                                                                 
 dense_6 (Dense)             (None, 1)                 101       
                                                                 
=================================================================
Total params: 63,301
Trainable params: 63,301
Non-trainable params: 0
_________________________________________________________________
WARNING:tensorflow:`period` argument is deprecated. Please use `save_freq` to specify the frequency in number of batches seen.
…
Getting Input Data for princerupert,canada-princerupert,canada-glossdm-bodc

Number of random sequences found was lower than 20 with: 5

Getting Input Data for seward-9455090-usa-noaa


Getting Input Data for adak,alaska-040a-usa-uhslc


Getting Input Data for sand_point,ak-574a-usa-uhslc


Getting Input Data for yakutat,ak-570a-usa-uhslc





 Station No Data List: []



Model: "sequential"
_________________________________________________________________
 Layer (type)                Output Shape              Param #   
=================================================================
 lstm_input (LSTM)           (None, 1, 100)            90800     
                                                                 
 lstm_1 (LSTM)               (None, 1, 100)            80400     
                                                                 
 lstm_2 (LSTM)               (None, 1, 100)            80400     
                                                                 
 lstm_3 (LSTM)               (None, 1, 100)            80400     
                                                                 
 lstm_4 (LSTM)               (None, 1, 100)            80400     
                                                                 
 lstm_5 (LSTM)               (None, 100)               80400     
                                                                 
 dropout_1 (Dropout)         (None, 100)               0         
                                                                 
 dense_1 (Dense)             (None, 100)               10100     
                                                                 
 dropout_2 (Dropout)         (None, 100)               0         
                                                                 
 dense_output (Dense)        (None, 1)                 101       
                                                                 
=================================================================
Total params: 503,001
Trainable params: 503,001
Non-trainable params: 0
_________________________________________________________________
WARNING:tensorflow:`period` argument is deprecated. Please use `save_freq` to specify the frequency in number of batches seen.
…
Getting Input Data for seward-9455090-usa-noaa


Getting Input Data for princerupert,canada-princerupert,canada-glossdm-bodc

Number of random sequences found was lower than 20 with: 5

Getting Input Data for sitka,ak-559a-usa-uhslc


Getting Input Data for sand_point,ak-574a-usa-uhslc


Getting Input Data for yakutat,ak-570a-usa-uhslc





 Station No Data List: []



Model: "sequential"
_________________________________________________________________
 Layer (type)                Output Shape              Param #   
=================================================================
 tcn_input (TCN)             (None, 1, 100)            426500    
                                                                 
 tcn_1 (TCN)                 (None, 1, 100)            400800    
                                                                 
 tcn_2 (TCN)                 (None, 1, 100)            400800    
                                                                 
 tcn_3 (TCN)                 (None, 1, 100)            400800    
                                                                 
 tcn_4 (TCN)                 (None, 1, 100)            400800    
                                                                 
 tcn_5 (TCN)                 (None, 100)               400800    
                                                                 
 dropout_1 (Dropout)         (None, 100)               0         
                                                                 
 dense_1 (Dense)             (None, 100)               10100     
                                                                 
 dropout_2 (Dropout)         (None, 100)               0         
                                                                 
 dense_output (Dense)        (None, 1)                 101       
                                                                 
=================================================================
Total params: 2,440,701
Trainable params: 2,440,701
Non-trainable params: 0
_________________________________________________________________
WARNING:tensorflow:`period` argument is deprecated. Please use `save_freq` to specify the frequency in number of batches seen.
…
Getting Input Data for sitka,ak-559a-usa-uhslc


Getting Input Data for princerupert,canada-princerupert,canada-glossdm-bodc

Number of random sequences found was lower than 20 with: 5

Getting Input Data for adak,alaska-040a-usa-uhslc


Getting Input Data for sand_point,ak-574a-usa-uhslc


Getting Input Data for yakutat,ak-570a-usa-uhslc





 Station No Data List: []



Model: "sequential"
_________________________________________________________________
 Layer (type)                Output Shape              Param #   
=================================================================
 tcn_input (TCN)             (None, 1, 100)            426500    
                                                                 
 tcn_1 (TCN)                 (None, 1, 100)            400800    
                                                                 
 tcn_2 (TCN)                 (None, 1, 100)            400800    
                                                                 
 tcn_3 (TCN)                 (None, 1, 100)            400800    
                                                                 
 tcn_4 (TCN)                 (None, 1, 100)            400800    
                                                                 
 lstm (LSTM)                 (None, 100)               80400     
                                                                 
 dropout_1 (Dropout)         (None, 100)               0         
                                                                 
 dense_1 (Dense)             (None, 100)               10100     
                                                                 
 dropout_2 (Dropout)         (None, 100)               0         
                                                                 
 dense_output (Dense)        (None, 1)                 101       
                                                                 
=================================================================
Total params: 2,120,301
Trainable params: 2,120,301
Non-trainable params: 0
_________________________________________________________________
WARNING:tensorflow:`period` argument is deprecated. Please use `save_freq` to specify the frequency in number of batches seen.
…
